models/best_model.npz (npz, 68122 bytes, 5 tensors)

layer1.weight f4 [128, 64]
000000 bc 64 0f 3f 29 39 56 3e 3e c3 2d bf 6c 0d 3c bd
       0.56013083 0.20920242 -0.6787604 -0.045911238
000010 12 76 f0 3e d6 82 f2 bb e8 69 eb be 74 d7 0c 3f
       0.4696508 -0.0074008508 -0.45979238 0.55016255
000020 f6 a2 2d 3e b2 e2 80 bd 9b 2a 04 3e ca c8 7b c0
       0.16956696 -0.06293239 0.12906878 -3.9341302
000030 64 e5 18 3f 92 7e bd 3e e8 e0 4d be 43 cf 8b bf
       0.5972502 0.37010628 -0.20105326 -1.0922626
000040 62 c0 a0 bf 9a 22 55 be f6 5a d8 3c d7 f7 a6 be
       -1.255871 -0.2081398 0.026410561 -0.32610962
000050 f5 ab 8d bf 1e fe 14 3f eb 6b 5f 3e 33 ba ec be
       -1.1068102 0.5820025 0.21818511 -0.4623581
000060 2b c0 b4 bf 4e 92 15 3f 55 1b d6 3e e4 bf 15 3f
       -1.4121145 0.5842637 0.41817728 0.58495927
000070 8e ad fd be ea 4b d5 be 70 95 43 3e 56 8c 45 3e
       -0.49546474 -0.4165948 0.19099975 0.19291815
000080 ee 14 0f 3f ea f0 ac 3d 62 63 15 bf 5e 13 1d be
       0.5589131 0.08444388 -0.5835477 -0.15339419
000090 16 83 94 3e 26 7a 34 3e 7b 04 70 be cc e1 0a 3f
       0.2900626 0.17624721 -0.23439209 0.5425079
0000a0 4f 9b b7 3d 34 29 b5 bd f1 4b 95 3e 2a ce 78 c0
       0.0896517 -0.088457495 0.291595 -3.8875833
0000b0 84 db 25 3f 60 32 b4 3e 5c 83 97 be a7 be 95 bf
       0.6478808 0.35194683 -0.29592407 -1.1698807
0000c0 fc 89 27 3f 8c 7d d9 3d ff 35 0d bf 5c 95 89 bd
       0.6544492 0.10619649 -0.55160517 -0.06717941
0000d0 01 ea 00 3f 16 f7 d1 3d ce 32 b5 be e6 9c fd 3e
       0.5035706 0.10252206 -0.35390323 0.49533767
0000e0 30 57 57 3e c4 b6 40 be a2 1e 58 3e 04 2e 79 c0
       0.21029353 -0.1881972 0.21105435 -3.8934336
0000f0 41 a5 00 3f cf ce 59 3e d6 26 0f be 99 9d 8f bf
       0.5025216 0.21270297 -0.13979658 -1.121997
000100 be c3 30 3f 4c 0b 47 bf 73 a7 24 be 2f 75 3c be
       0.6904868 -0.7775161 -0.16079502 -0.18404077
000110 a8 29 12 3f 4a 25 f9 bd 36 bb 95 3e b5 b5 e7 be
       0.5709481 -0.121653154 0.29244393 -0.4525582
000120 c8 b2 89 be de 63 2c be 3e 0d dd 3e 76 be 9a bf
       -0.26894212 -0.16834971 0.43174165 -1.2089374
000130 db 88 0c bf a6 0c c7 3d d0 23 4e 3e be f6 9f be
       -0.54896325 0.097192094 0.20130849 -0.31242937
000140 39 2c 84 bf 71 44 c0 be be e8 1f be 34 3d 19 bf
       -1.0325996 -0.37552217 -0.15616128 -0.59859014
000150 d5 f7 a7 bf c1 05 df bd dc e5 24 bf f9 1c 49 3e
       -1.3122507 -0.10889769 -0.6441324 0.19639958
000160 3f ca 88 3e d1 60 bd be 2b 37 0a c0 b6 81 78 bd
       0.26716802 -0.36987928 -2.1596172 -0.060670577
000170 ae 09 cd bf 41 38 5b 3e 21 3d 94 3e a9 a4 16 3d
       -1.6018579 0.21408178 0.28952888 0.036778126
000180 54 75 13 3f 67 35 2e bf b9 2a 28 be 07 ba 66 be
       0.57600904 -0.68050236 -0.16422547 -0.22531901
000190 27 f2 01 3f 15 4b 8b 3d 91 7c fd 3d a5 f9 8a be
       0.5076012 0.0680143 0.12377275 -0.2714359
0001a0 02 77 9b be ae 3b 45 bd 60 7f cd 3e 26 ca 99 bf
       -0.30364233 -0.048152618 0.40136242 -1.2014816
0001b0 6f 26 1c bf 52 d8 b3 3d ee 7e 2d 3e fa 3f b8 be
       -0.60996145 0.08781494 0.16942951 -0.3598631
0001c0 b6 b6 3c 3f 1b 84 3e bf f5 07 0f be ec 7d 81 bd
       0.73716295 -0.74420327 -0.13967879 -0.06322846
0001d0 de c8 f4 3e e4 04 1a 3b 14 81 9f 3d cf d5 8a be
       0.478095 0.002350145 0.077882916 -0.27116248
0001e0 04 ef a2 be 61 b7 88 bd 02 a6 da 3e 06 bc a0 bf
       -0.3182298 -0.06675602 0.4270478 -1.255738
0001f0 15 26 16 bf be 0c d3 3c 0b 90 cc 3d b0 49 9f be
       -0.5865186 0.025762912 0.099884115 -0.31110907
000200 2e 0a 8f 3e fb 4a 02 3e a9 3e 3d 3d 8c 01 88 bf
       0.27937454 0.12723915 0.046202336 -1.0625472
000210 d7 42 3e 3e 12 73 d3 3d 1b 6b a1 bd 9d 88 d2 bd
       0.18580185 0.10324682 -0.07881757 -0.10279963
000220 b0 81 50 3e 2c 58 1b bc c0 42 f6 be e4 5a bd 3d
       0.20361972 -0.009481471 -0.480978 0.09245852
000230 22 07 ef 3e 71 38 60 bd 21 92 53 3e d5 76 33 3e
       0.4668513 -0.054741327 0.20661213 0.175258
000240 94 3b dd be e6 eb 88 bd b2 9f b9 be a4 cf 5c be
       -0.43209517 -0.06685619 -0.3625465 -0.21563584
000250 a1 fb 2f bf 5d 61 9e 3f aa d9 a4 be 37 88 2e bf
       -0.6874333 1.2373463 -0.32197315 -0.681766
000260 05 ca db bf 55 72 40 be 99 35 d6 bf 9b 65 81 bd
       -1.7171026 -0.18793614 -1.6735107 -0.06318208
000270 02 56 34 c0 1b 6d 35 bf 45 48 35 bf f6 15 22 c0
       -2.8177495 -0.70869607 -0.708134 -2.5325904
000280 7a 60 ca 3e ac c2 99 bd 09 59 c0 3d 96 a3 75 bf
       0.3952673 -0.07507834 0.09391982 -0.9595274
000290 b9 3e 31 3e a5 67 0a bd 2d dd 2d be 4d 15 97 bd
       0.17309083 -0.03379025 -0.16978903 -0.0737711
0002a0 fc a9 5b 3e ae 21 a3 bd ae 4f c4 be e8 6c 3e 3e
       0.21451563 -0.07965408 -0.3834204 0.18596232
0002b0 61 65 27 3f 21 9c 60 3d 8f 18 41 3e b1 e4 cd 3d
       0.65389067 0.054836396 0.18857025 0.10053385
0002c0 e6 03 af 3e 9b 4c 81 3d 8d ec 79 3e f4 13 7b bf
       0.34182662 0.063134395 0.24406643 -0.9807732
0002d0 9b 9d 97 3e 06 f2 11 3c d8 b8 61 be 0a 6f 3c 3c
       0.2961243 0.008907801 -0.22043169 0.011501083
0002e0 cc e3 8f 3e 0b a9 00 be b0 07 f2 be e3 02 11 3d
       0.28103483 -0.12564485 -0.4727149 0.035403144
0002f0 7d 28 11 3f 49 99 c5 3d de 6f b3 3e 99 f0 af 3d
       0.56702405 0.096483774 0.35046285 0.08590812
000300 ee 0b d4 be 04 50 b0 bf 40 35 36 bf b4 b4 5c 3d
       -0.41415352 -1.3774419 -0.71175003 0.05388327
000310 51 9e df 3e 34 7c 02 3f e1 4b b1 3e f5 d1 6f be
       0.43675473 0.5097077 0.34628204 -0.23419936
000320 4b a8 38 3f b0 48 78 bf 8f ae aa be 17 48 e7 3c
       0.72131795 -0.9698591 -0.33336303 0.028232617
000330 a7 c3 05 3e 95 73 ab 3d 67 4a d7 3d d3 9a 27 bf
       0.13062917 0.08371655 0.10512238 -0.6547062
000340 70 d2 9d 3d 66 2f 9d 3d ca 67 46 3f b9 14 21 be
       0.077061534 0.07675056 0.7750212 -0.15730561
000350 7e 67 00 bf 34 cd 9b 3f bb 50 27 c0 fe 0f c7 be
       -0.50157917 1.2171998 -2.6143024 -0.3887939
000360 a8 00 64 bf c6 ab 30 bf 76 03 1a 3e 67 ee 68 3d
       -0.890635 -0.69012105 0.15040383 0.056867983
000370 10 55 25 bf b7 f3 c8 bf cf 79 1b be b2 a4 95 bf
       -0.6458292 -1.5699376 -0.15183185 -1.1690886
000380 9c 04 b7 be fe 27 b4 bf 7e 64 47 bf 26 de 2e 3d
       -0.35745704 -1.4074705 -0.77887714 0.042692326
000390 d6 7c 83 3e 5b f8 b8 3e 26 86 0d 3f fd 46 5a be
       0.2568118 0.3612698 0.5528282 -0.21316142
0003a0 47 c2 48 3f 3d ec 72 bf 01 0a 36 be 14 b1 2c 3e
       0.78421444 -0.9489172 -0.17777254 0.16864425
0003b0 0f b8 62 3d f8 53 82 3e 02 fb 7c 3e 27 a7 2d bf
       0.055351313 0.25454688 0.24705127 -0.6783318
0003c0 82 11 a1 be 37 76 9b bf bc b2 2f bf c6 dd b0 bd
       -0.3145867 -1.2145451 -0.686321 -0.0863605
0003d0 67 46 e0 3e b9 3c d3 3e 93 71 d8 3e 5d d0 27 be
       0.43803713 0.41257265 0.4227415 -0.16388078
0003e0 61 77 44 3f b9 95 42 bf 23 0a c1 be aa 98 43 3e
       0.7674466 -0.7600971 -0.37703046 0.19101205
0003f0 0f 08 aa 3d af 4d 71 3e d9 32 75 3e 0f 6e 3a bf
       0.08302318 0.2356479 0.23945178 -0.72824186

layer1.bias f4 [128]
000000 f4 fb 83 3b 27 e2 c7 3d 9c 0a 3a be ba 09 16 bf
       0.004027838 0.09759932 -0.1816811 -0.5860859
000010 f0 c6 35 ba 94 ed e8 3d 81 05 17 bf ef 30 4e be
       -0.0006934246 0.113734394 -0.58992773 -0.20135854
000020 71 ad 48 3e e0 38 87 be 45 0d 7c bf af f6 e2 be
       0.19597413 -0.2641058 -0.9845775 -0.4432883
000030 39 1d 0d bf 1a a6 20 bf bc 26 b7 bf 91 0b 33 be
       -0.55122715 -0.6275345 -1.4308696 -0.17484881
000040 24 7e 03 3e fd 50 7d 3e e8 14 a6 bb 47 7c ca be
       0.12841088 0.24737926 -0.00506841 -0.3954794
000050 96 50 ff 3d 0f d6 ea bd 0f a0 fb be d7 96 cc 3e
       0.124665424 -0.1146661 -0.49145553 0.39958832
000060 a0 df f0 be b8 c9 bd 3e 47 09 0a bf 86 0b f2 bd
       -0.47045612 0.37067962 -0.53920406 -0.11818604
000070 c4 bd ae 3d ec 9e 1a 3f 26 18 d4 be c1 bf 89 bf
       0.08532289 0.60398746 -0.41424674 -1.0761644
000080 55 b8 b8 3d 32 5a b1 be 75 d2 04 bf 4d 67 fb be
       0.090195335 -0.34639126 -0.5188363 -0.4910225
000090 09 6f 7f 3e de 9c 23 3b 8b 23 1d bf 6b 56 d3 be
       0.249447 0.0024965326 -0.6138236 -0.4127687
0000a0 1b 51 ff be 05 e9 8d be c0 64 95 be d3 c1 54 bf
       -0.49866566 -0.27716842 -0.2917843 -0.8310825
0000b0 81 de 7a bf e9 3d 8b bf ec 57 69 bd 67 3c fb bd
       -0.97995764 -1.0878268 -0.056968614 -0.1226738
0000c0 b6 29 21 bf 25 18 3a 3d ed 0b 99 bf 77 ff 01 bf
       -0.6295427 0.045433182 -1.1956764 -0.50780433
0000d0 3d e4 b2 3d ff 5a f5 be 28 49 05 be 0a bc dd bc
       0.08734939 -0.47920987 -0.13016188 -0.027067203
0000e0 64 a5 ce be b3 a5 97 bf f7 43 81 bf 3c 86 84 be
       -0.40360558 -1.1847442 -1.0098866 -0.25883663
0000f0 b1 6b 8d 3e c7 67 43 3c 2f 8c ba be f8 0f 12 be
       0.27621225 0.011926598 -0.36435077 -0.14263904
000100 96 7f cf 3b e2 d4 a6 3e be 57 df bd d5 6d af be
       0.006332348 0.32584292 -0.10905407 -0.34263483
000110 71 a2 c7 be 53 77 d0 bf 3f 91 7b be 71 a5 c7 bd
       -0.3899112 -1.6286415 -0.24567126 -0.09748352
000120 d8 a9 13 be 6b d7 7b bf c1 82 8d bf 20 35 00 3d
       -0.14420259 -0.98375577 -1.1055528 0.031300664
000130 bc 5a 69 bf dc cc 32 3c 77 63 02 bf 99 77 6e 3e
       -0.91154075 0.0109131 -0.5093302 0.2328781
000140 d0 86 e1 bd 56 11 96 3e 21 57 a0 bf 43 e5 18 be
       -0.110120416 0.293101 -1.252659 -0.14931206
000150 93 ff 05 bf b8 88 48 bf ae 98 3b bf 1f e5 46 bf
       -0.523431 -0.78333616 -0.73279846 -0.7769336
000160 f4 d8 9f be cd cd 32 3d 7a 4b a0 be a3 f6 94 bf
       -0.3122021 0.0436533 -0.31307584 -1.1637768
000170 ac 86 42 be a1 b5 cc bf 20 95 54 bc d2 08 ac bd
       -0.18996686 -1.5992929 -0.012975007 -0.0840012
000180 00 2b 62 3d f3 e1 c6 bd 16 a2 0f 3e c2 28 d0 be
       0.05521679 -0.09711065 0.14026675 -0.40656096
000190 f2 36 b6 be e3 b4 80 3d ec 70 85 3e 36 16 a9 bf
       -0.35588795 0.062845014 0.26062715 -1.3209903
0001a0 74 e7 07 bf 57 84 79 be c6 93 39 3e 78 28 25 3e
       -0.53087544 -0.2436689 0.18122777 0.16128719
0001b0 56 d6 26 3e 74 ce 35 bd 94 ec 86 be 1d 12 c2 be
       0.162927 -0.044386342 -0.2635237 -0.37904444
0001c0 ea 47 a0 3e 55 7d ef be 80 90 b4 be 3d cb df be
       0.31304866 -0.46775308 -0.35266495 -0.43709746
0001d0 b5 4f 1f bf 56 0b 66 3e 58 e8 4f be de 98 58 bf
       -0.62231 0.22465262 -0.20303476 -0.84608257
0001e0 7f 58 ad 3d 66 3b 8f be e3 cb 66 bd 14 d1 6f bf
       0.08464145 -0.27975005 -0.056346785 -0.936784
0001f0 92 2d c1 bf 04 33 88 bb 92 89 33 bf 35 22 01 bf
       -1.5092032 -0.004156472 -0.7013179 -0.5044282

layer2.weight f4 [64, 128]
000000 52 01 53 be ab fd a4 bd 52 ea 6f be d4 69 49 3d
       -0.20605972 -0.08056196 -0.2342923 0.04917319
000010 3e f4 d5 bd a1 fa 2b be 13 a1 05 3e c9 cd df bc
       -0.10446976 -0.16794826 0.13049726 -0.027319806
000020 d1 7e fa 3d b3 bf f5 bd 21 c4 8f bd f4 f1 8d bd
       0.122312196 -0.11999454 -0.070198305 -0.069309145
000030 aa 58 ab bd 6b fe 88 bc a8 28 81 bd ea db 91 bd
       -0.08366521 -0.016722878 -0.06306583 -0.071220234
000040 fe 35 37 be 9d b4 98 be e3 89 a3 be cd 96 38 bd
       -0.1789169 -0.29825297 -0.31941137 -0.04506569
000050 03 2a 77 bd 22 ba c2 bc 5e ae 2d bf 60 c0 c6 bd
       -0.0603428 -0.023770396 -0.6784419 -0.09704661
000060 33 2d 7e bd fb 68 d8 bd 6c bd be bd 40 f8 ae bd
       -0.062054824 -0.105668984 -0.09313473 -0.08543444
000070 b8 8d 27 bc 3d 66 ad bd 0b 62 c1 be 64 10 15 3c
       -0.0102266595 -0.08466766 -0.37770113 0.009098146
000080 08 e7 df be f4 e0 88 be 43 57 11 3e 28 24 16 bf
       -0.4373095 -0.26734126 0.14193444 -0.5864892
000090 05 64 2a 3d da 99 8b bd c0 e0 19 3e 62 b8 ff bd
       0.041599292 -0.06816454 0.15027142 -0.1248634
0000a0 36 4c d0 be eb 26 93 be a0 9e de 3e e1 64 f7 be
       -0.40683144 -0.2874063 0.43480396 -0.48319152
0000b0 ea 5f d8 be b3 00 9c be 4c 31 39 ba a0 a2 57 3d
       -0.42260677 -0.30469283 -0.0007064536 0.052645326
0000c0 74 01 52 bf e8 1a 8b be 14 c3 fc be ef 3a 0a bf
       -0.8203347 -0.27168965 -0.49367583 -0.53996176
0000d0 3c 09 40 bf 90 21 69 3e 68 8b 02 bf 6c dd ca bd
       -0.7501409 0.2276671 -0.5099397 -0.09905514
0000e0 d7 bf b5 be 12 26 f2 bd 27 63 40 be 29 54 7e be
       -0.35497925 -0.118236676 -0.18787824 -0.24836792
0000f0 f7 26 5a bf dd 73 82 be d4 f5 0a 3e 32 28 c9 bc
       -0.85215706 -0.25479022 0.13570338 -0.0245553
000100 99 bc 23 be 0d b7 1e be f0 b6 de bc 3d 7c d6 bc
       -0.15989913 -0.15499516 -0.02718684 -0.026182288
000110 13 d9 92 bd 91 fc c9 3d 64 37 8d be 70 af a0 bd
       -0.0717031 0.09862626 -0.27581322 -0.07845962
000120 9d 82 bc be cb fa b7 3d c7 19 8c 3d 16 c4 0a bf
       -0.368184 0.08983382 0.06840854 -0.54205453
000130 71 20 e1 bd 04 4c 24 be 8f 67 0c be 89 72 d8 bd
       -0.10992516 -0.16044623 -0.1371138 -0.10568721
000140 ec 6a 1b be 9c da 2b be b6 3a 2f bd 7b 5f b2 3d
       -0.15177506 -0.16782612 -0.0427806 0.08709618
000150 0f 26 23 be c7 f3 2c 3d ed 04 1d bf b7 7f ad 3e
       -0.15932487 0.04222467 -0.6133564 0.338865
000160 b7 ae 11 be d6 44 b6 bd e2 08 05 3e b9 30 a5 bd
       -0.14226805 -0.08899848 0.1299167 -0.08065934
000170 36 d1 87 be e0 74 09 3f 71 40 db 3c 6f b1 c5 bc
       -0.26526803 0.5369396 0.026764126 -0.024132458
000180 68 af f9 bd 13 9c bc 3d b0 06 31 be ad c6 ce 3c
       -0.12191659 0.09209456 -0.17287707 0.02524122
000190 92 c4 4a 3d c5 61 a1 be 3b 93 6c bd 6c 59 e0 3c
       0.04950387 -0.31519905 -0.057757597 0.02738639
0001a0 17 92 45 bf ec 6d 91 3c 7d 19 e2 3d c5 2e b7 bd
       -0.7717604 0.01775261 0.11040018 -0.089444675
0001b0 78 69 15 be 86 83 e4 be 6f ec b3 bd b1 6c 34 bf
       -0.14591014 -0.44631594 -0.087853305 -0.7047835
0001c0 e2 86 72 bd 67 9f 91 be 6a 32 bc 3e c9 0b 69 be
       -0.059210666 -0.28441927 0.36757213 -0.22758402
0001d0 2d 34 d8 be 41 63 fc bd 3f 91 06 3e 72 d7 36 bd
       -0.42227307 -0.12323619 0.13141344 -0.04463906
0001e0 4c 4e 5d 3e f1 30 6f be 91 5f 6c bf a6 9b 09 bf
       0.21611899 -0.23358513 -0.9233332 -0.53753126
0001f0 30 e0 85 3d 51 ba 5d 3c 76 cc 76 3e 78 2e c2 3d
       0.06536901 0.013533191 0.24101433 0.094815195
000200 a8 c9 d0 be 5c b7 be bf 95 37 d7 3d cd aa ab 3b
       -0.40778852 -1.4899707 0.10508648 0.005238867
000210 fd 38 05 3f ae c0 ae bd 12 b1 76 bf 06 49 c5 bf
       0.5204008 -0.085328445 -0.9636394 -1.541291
000220 bf d0 0c bf e1 fe 31 be c0 75 55 3f 72 4d ee 3e
       -0.5500602 -0.17382385 0.833828 0.4654346
000230 03 6d c8 be be 2b 81 3f 80 f9 19 bf 68 b5 d3 3e
       -0.3914567 1.0091474 -0.6014633 0.4134934
000240 e3 be f7 be bb 30 9f 3c e7 7d 1b bf 53 68 b8 3e
       -0.48387823 0.019432416 -0.60738987 0.36017093
000250 12 fe e2 be 11 bc ba be 14 64 df be 3b 8f de bd
       -0.44334465 -0.36471608 -0.4363104 -0.10867163
000260 1b cd 45 bf 2a ee 4a 3f dd 48 68 bf 75 ff 13 be
       -0.7726609 0.7926966 -0.9073618 -0.14452918
000270 e7 e6 7c 3f 9a 18 ad be 8f a7 76 3f f7 75 8f 3f
       0.9878983 -0.33807832 0.96349424 1.1207875
000280 dd 9c 46 3d 82 4f 11 bd 25 9a bf 3e 6d 21 09 3e
       0.04848944 -0.035476215 0.3742229 0.13391657
000290 e6 c6 c2 be 5e 4c 82 3e 3b 12 af bd 78 29 06 3f
       -0.38042372 0.2544889 -0.08548399 0.52407026
0002a0 d3 83 25 bd fc 24 4e bf 54 38 47 3f 63 8f 50 be
       -0.04040892 -0.80525184 0.77820325 -0.20367198
0002b0 d0 b2 31 bf ba 9f 81 bf c9 81 80 bd 34 92 b0 3c
       -0.6941347 -1.012687 -0.062747546 0.02155409
0002c0 31 d2 3f bf 4d 31 99 bc 89 54 b7 3f fe 74 e3 be
       -0.749301 -0.018700266 1.4322673 -0.44425195
0002d0 cd 2f e9 be 00 5e ea 3d 0c d9 78 3f ce 6f 0b 3f
       -0.45544282 0.1144371 0.9720619 0.54467475
0002e0 20 f9 39 3f 3b d7 b7 3e d4 25 ac bc 7e c7 05 3f
       0.7264576 0.35906395 -0.021014132 0.52257526
0002f0 c0 b6 ce bf 53 7c d6 3d 1e 1d 7f be c1 31 98 bd
       -1.6149521 0.10472932 -0.24913451 -0.07431365
000300 a4 31 ac 3d aa a9 2d bf 01 52 2b bf bb d2 97 be
       0.08407906 -0.6783701 -0.66922003 -0.29652962
000310 c9 82 80 be 6e ff 01 3f 3b 52 18 be 2d 1f 19 3c
       -0.2509978 0.5078038 -0.14875118 0.009345812
000320 bb 36 16 3e 59 82 dc bd eb 58 5d 3f a3 8d 8c bf
       0.14669316 -0.10767049 0.86463803 -1.0980724
000330 8d b1 59 3f 81 76 35 bd 65 9f 22 bf 91 7e 6e 3e
       0.85036546 -0.044302467 -0.63524467 0.23290469
000340 74 f2 67 bd f2 16 a5 be cd 3c ad 3f da 0f 2e bd
       -0.056627706 -0.32244068 1.353418 -0.042495586
000350 e4 d8 4a bf d2 5f e6 be 05 58 37 3e 5e 5d 1b bc
       -0.792372 -0.4499498 0.1790467 -0.00948271
000360 9c 08 3f be 78 47 07 bf ce 06 ad 3f 3e c2 48 3f
       -0.18655628 -0.5284343 1.3517702 0.7842139
000370 c9 6f d6 be 41 f3 f5 bd 82 f7 7e 3d 01 d2 89 b8
       -0.4188216 -0.120092876 0.06224776 -6.571785e-05
000380 98 f0 d9 be b0 27 16 3c 55 89 d4 3e 1a 7a b3 3c
       -0.4256637 0.009164736 0.41511026 0.021908808
000390 da b0 b0 be 1f bb a2 bc ed fb 07 bf 4c 53 21 3f
       -0.34509927 -0.019864617 -0.53118783 0.63017726
0003a0 8f 56 8f 3e d2 be 19 3d ea 23 a6 bf 12 55 ec be
       0.27995726 0.037535496 -1.297971 -0.46158653
0003b0 d4 db c9 bf b7 40 d3 3e 9b fa de bd 2d 98 9a 3f
       -1.5770211 0.4126031 -0.10887643 1.207769
0003c0 67 d3 22 be 7f 99 5f 3e 8f c4 75 3f f4 75 22 3e
       -0.15900956 0.21835898 0.9600305 0.15865308
0003d0 46 de 92 3e 71 25 d7 be 8f 3f 11 3e b5 42 23 3f
       0.28685206 -0.42020753 0.14184402 0.6377366
0003e0 2d 30 71 3c db 08 5f bf f1 2b fb 3e eb 30 bd 3f
       0.014720959 -0.8712289 0.49056962 1.4780554
0003f0 1b ec d9 3d 7e 72 40 3d 16 33 85 be 7e 30 09 c0
       0.10640737 0.04698419 -0.26015538 -2.1435847

layer2.bias f4 [64]
000000 03 c1 a6 bc a4 e8 a8 be 6e 45 06 be 46 6d 45 bc
       -0.020355707 -0.3298999 -0.13112423 -0.012049979
000010 16 7d 23 bf b1 68 55 be 26 b6 1e be 56 f2 65 bf
       -0.6386274 -0.20840718 -0.15499172 -0.898229
000020 2c 93 79 bf 3b 96 23 bf 40 a7 25 3f c3 86 71 bf
       -0.9749019 -0.6390111 0.6470833 -0.94346255
000030 4d 22 f8 3d a2 ef be bd 6a 2c 1e bf 3e d7 84 be
       0.12115917 -0.0932305 -0.6178652 -0.25945467
000040 14 fd 1f 3f 1e 10 21 bf 0e cd 5b bf ec 82 22 be
       0.6249554 -0.6291522 -0.85859764 -0.15870255
000050 a0 54 f3 bc 98 49 44 be 26 7d 15 be e3 4b be be
       -0.029703438 -0.19168699 -0.14598522 -0.37167272
000060 26 47 51 3d 6a 15 d3 bd e5 5f 06 bd d4 e4 05 be
       0.051093243 -0.10306819 -0.032806296 -0.13075572
000070 a1 74 45 bd 80 13 7e bf 3e 54 93 be af 38 1f be
       -0.04820693 -0.99248505 -0.2877521 -0.15548967
000080 eb 81 1a be 3b c1 48 bf b3 1c 31 bf 25 f4 45 be
       -0.15088622 -0.78419846 -0.69184417 -0.19331415
000090 87 aa fc be ef 40 45 3f e6 34 52 3f 6d a5 01 c0
       -0.49348852 0.77052206 0.82111967 -2.0257218
0000a0 dd f6 ed bd 23 e3 55 be 7d f0 c8 be 66 31 51 be
       -0.11619351 -0.20887427 -0.39245978 -0.20429
0000b0 54 ca 2a bf 4f 98 3d be 90 1a 8b bf 6d ef 66 be
       -0.6671498 -0.18515132 -1.0867481 -0.22552271
0000c0 9f c5 45 bf 52 c8 17 3e 17 e8 90 be a8 83 e8 be
       -0.7725467 0.1482251 -0.2830207 -0.45412946
0000d0 45 e8 8a be 12 e4 4e bf e1 c0 0a 3d d1 83 45 3d
       -0.27130333 -0.8081676 0.03387535 0.048221413
0000e0 8c 27 2b be 2a af 3f bf bb c0 e5 3e 6b d4 7e 3f
       -0.16714305 -0.74876654 0.44873604 0.99542874
0000f0 6e 09 5a bf 45 77 d5 be ef 3e 91 bf 08 ec 29 3f
       -0.8517064 -0.41692558 -1.1347331 0.6637578

layer3.weight f4 [1, 64]
000000 b6 33 1f 3c 6a bb 19 3e 42 d4 c0 bc 83 18 00 bd
       0.009716919 0.15012899 -0.023538712 -0.031273376
000010 a2 c5 9d 3e 2c 0c 61 3f 12 5f c2 3c 51 63 b4 be
       0.30814844 0.879092 0.023726974 -0.35232022
000020 af 69 f6 be 98 53 0e bf f2 8e b1 bd 47 38 8c 3e
       -0.48127505 -0.55596304 -0.08669843 0.27386686
000030 a4 cf ec bf 25 42 71 3c a1 d3 75 3f 77 a9 93 be
       -1.8500867 0.014725243 0.96026045 -0.2884023
000040 93 0e 74 3d ed 6a 0f 3f 59 1c a3 3e ca cc f3 3c
       0.05958421 0.5602253 0.31857565 0.029760737
000050 85 2a 13 bd 8c 61 e3 bf 68 93 2e 3c b3 4f 21 bf
       -0.03592922 -1.7764144 0.010655262 -0.63012236
000060 03 de 28 be 34 45 73 3d aa a7 9c 3c 06 5d 3b 3e
       -0.16490941 0.05939217 0.019122917 0.18297204
000070 a8 fa 92 bd 99 e1 00 3f f1 88 49 3e 7e f9 eb be
       -0.07176715 0.50344235 0.19681145 -0.46088785
000080 d8 ac d5 3c 56 9d f5 3e 03 bf 35 3f ee 37 f1 b9
       0.026083395 0.479716 0.70994586 -0.00046008773
000090 28 a9 d1 3e d5 4f 7a 3d 4d 2a b3 bd 33 c7 fd 3e
       0.40949368 0.06111129 -0.087483026 0.4956604
0000a0 27 c9 fa bd c8 58 96 3c c2 92 10 bc 47 78 c7 bc
       -0.12245398 0.018352881 -0.008824052 -0.024349345
0000b0 9d 76 a4 be 2d a5 40 3e 86 b6 06 bf 51 4b 68 3e
       -0.32121745 0.1881301 -0.5262226 0.22684981
0000c0 c8 ec 76 bf 9f 74 f5 3d 85 50 f6 bc 24 40 c7 be
       -0.9645505 0.11985134 -0.030067692 -0.38916123
0000d0 41 29 3c 3f ce 7d cb 3e ee 2c 16 bf 85 96 a7 be
       0.7350045 0.3974442 -0.5866231 -0.32732025
0000e0 7b 47 19 3c 19 11 55 3f df e6 d0 bd 0c 54 f0 bd
       0.009355421 0.83229214 -0.10200285 -0.11734781
0000f0 a2 c1 78 bf 9c 69 5a bf eb b8 d0 be 26 17 f3 3d
       -0.9717046 -0.853174 -0.4076608 0.118696496
