models/final_model.npz (npz, 68122 bytes, 5 tensors)

layer1.weight f4 [128, 64]
0	0x3f778e87	0.96701854
1	0x3e9422a4	0.2893268
2	0xbf8131b1	-1.009329
3	0xbe3b3dd7	-0.18285309
4	0x3f2c8862	0.67395604
5	0x3e5ec76f	0.21755765
6	0xbf2d3bd3	-0.6766941
7	0x3f3f1fec	0.74658084
8	0x3e5d1f08	0.21593869
9	0x3b066866	0.0020509004
10	0x3debcca2	0.1151364
11	0xc0f13f8b	-7.5390067
12	0x3f1ebabf	0.620037
13	0x3ed3e89f	0.41388413
14	0xbe1b277c	-0.15151781
15	0xbfd6f029	-1.6792041
16	0xc00da0ce	-2.2129397
17	0xbf001dd0	-0.5004549
18	0x3edbc705	0.42925277
19	0xbe911c9e	-0.28342146
20	0xbfdfef01	-1.7494813
21	0x3f4738d9	0.7782112
22	0x3e31c48c	0.17360133
23	0xbe2ac066	-0.16674957
24	0xc0016bbb	-2.0222003
25	0x3f9a3da2	1.2050059
26	0x3f58f133	0.8474304
27	0x3f46e0de	0.7768687
28	0xbf7b4ff0	-0.9816885
29	0xbf6e0148	-0.92970705
30	0x3f333475	0.7000192
31	0x3ee5e0de	0.44898123
32	0x3f773eb9	0.9658008
33	0x3e28869e	0.16457602
34	0xbf6a04e4	-0.9141371
35	0xbe94a6bb	-0.29033455
36	0x3efd1c49	0.49435642
37	0x3ecd69e8	0.40119863
38	0xbee7151c	-0.45133293
39	0x3f3d2a44	0.7389262
40	0x3e0b4a6a	0.13602605
41	0xbcc04d67	-0.023474408
42	0x3e8e2b79	0.27767542
43	0xc0efc21d	-7.4924455
44	0x3f2bb0f7	0.670669
45	0x3eca9c6d	0.39572468
46	0xbe7c4905	-0.2463723
47	0xbfe0df8d	-1.7568222
48	0x3f87d936	1.0613163
49	0x3e3ecc40	0.18632603
50	0xbf61d78e	-0.88219535
51	0xbe5104cb	-0.20411985
52	0x3f353754	0.7078755
53	0x3ea7ab68	0.3274796
54	0xbf122297	-0.5708403
55	0x3f3116a0	0.6917515
56	0x3e836a10	0.25666857
57	0xbdfc5419	-0.12320728
58	0x3e49dc8a	0.19713035
59	0xc0eff207	-7.4982944
60	0x3f067a7f	0.52530664
61	0x3e83511f	0.25647828
62	0xbdb8d890	-0.09025681
63	0xbfdabe7f	-1.7089385
64	0x3f36d36b	0.7141635
65	0xbf6111e5	-0.8791793
66	0xbed2ffb9	-0.41210726
67	0xbf27c205	-0.65530425
68	0x3f0e8022	0.55664265
69	0xbe89fc02	-0.2695008
70	0x3ef2d3ab	0.47427115
71	0xbf14fda0	-0.581995
72	0xbecd1e90	-0.4006238
73	0xbe7f0c07	-0.24906932
74	0x3f082a3d	0.5318945
75	0xc014b114	-2.323308
76	0xbf39c0b8	-0.7255969
77	0x3ea9a442	0.3313313
78	0x3e1976d6	0.14986739
79	0xbd9a9c2a	-0.07549317
80	0xbf9d3a36	-1.228339
81	0xbf086d41	-0.5329171
82	0xbe4edf63	-0.20202403
83	0xbfaac7dd	-1.3342243
84	0xbffc7ac9	-1.9724971
85	0xbeaace9c	-0.33360755
86	0xbf51429c	-0.8174226
87	0x3d9c9f58	0.0764758
88	0x3fcc98d3	1.5984138
89	0x39afc264	0.00033523433
90	0xc0768cf9	-3.8523543
91	0xbd1a30e7	-0.037644293
92	0xc00e48c8	-2.2231922
93	0x3ec27058	0.37976336
94	0x3f1a0f4c	0.6017959
95	0xbf0c2968	-0.5475068
96	0x3f198501	0.5996857
97	0xbf483bf5	-0.7821649
98	0xbed4c126	-0.4155361
99	0xbf325397	-0.696588
100	0x3efc8f4e	0.49328083
101	0xbda37ed4	-0.07983175
102	0x3e9c7889	0.3056071
103	0xbecd3f2c	-0.4008726
104	0xbedee332	-0.4353271
105	0xbe03f7dd	-0.12887521
106	0x3f00631d	0.50151235
107	0xc01436da	-2.3158479
108	0xbf495e46	-0.78659475
109	0x3ea4d726	0.32195395
110	0x3df1a4a4	0.11798981
111	0xbdfbbda4	-0.122920305
112	0x3f42c663	0.76083964
113	0xbf588ab5	-0.8458665
114	0xbec82fe9	-0.39099053
115	0xbf08d39b	-0.53447884
116	0x3eed7350	0.4637704
117	0xbe14fbdc	-0.14549202
118	0x3e84fa62	0.25972277
119	0xbecd1b4c	-0.40059888
120	0xbee65bae	-0.4499182
121	0xbe17051f	-0.14748047
122	0x3f06f676	0.5271982
123	0xc017afe6	-2.370111
124	0xbf435dec	-0.7631519
125	0x3e851142	0.2598973
126	0x3d465de6	0.048429392
127	0xbd97e7b6	-0.07417242
128	0x3ed1813c	0.4091891
129	0x3dfd27b9	0.12361092
130	0xbeba92db	-0.36440167
131	0xbfe7ab2f	-1.8099116
132	0x3e2e3889	0.17013754
133	0x3e8508b0	0.2598319
134	0xbe4f79f8	-0.20261371
135	0x3e262d33	0.1622818
136	0x3ef23451	0.4730554
137	0xbdd1ea18	-0.10249728
138	0xbf68c748	-0.9092908
139	0xbdecdcfb	-0.11565586
140	0x3f61c005	0.88183624
141	0x3e06befa	0.1315879
142	0x3edb767c	0.42863834
143	0xbde5a082	-0.11212255
144	0xbf0ac977	-0.5421366
145	0xbe977956	-0.2958476
146	0xbe149095	-0.14508279
147	0xbf05967d	-0.5218275
148	0xbf3e04d4	-0.7422612
149	0x40022fc6	2.0341659
150	0xbf300720	-0.6876087
151	0xc06ee0c7	-3.7324693
152	0xc058e9a7	-3.389261
153	0xbf379550	-0.7171221
154	0xc061b504	-3.5266733
155	0xbda9d3be	-0.0829234
156	0xc098a78e	-4.7704535
157	0xbf82b469	-1.0211307
158	0xc021f012	-2.5302777
159	0xc120b637	-10.044486
160	0x3f066b7a	0.52507746
161	0xbda13090	-0.07870591
162	0xbea223d3	-0.31667957
163	0xbfda7b01	-1.7068788
164	0x3e21349a	0.15742722
165	0x3dfb7b10	0.12279332
166	0xbe96515b	-0.29358944
167	0x3e43e6f5	0.19131072
168	0x3ef7c86f	0.48395106
169	0xbe30d16c	-0.17267388
170	0xbf4fcec6	-0.81174886
171	0xbcb575c4	-0.022150882
172	0x3f88d0bf	1.0688704
173	0x3e76f352	0.24116257
174	0x3ed23a28	0.41059995
175	0xbe3f52b5	-0.18683894
176	0x3ef17b06	0.47164172
177	0x3d73bdae	0.059507065
178	0xbe2a898e	-0.16654035
179	0xbfdd336b	-1.7281317
180	0x3e8f98b9	0.28046206
181	0x3e297623	0.16548972
182	0xbeb03eab	-0.34422812
183	0x3e8d9c1c	0.27658165
184	0x3f0ceb24	0.55046296
185	0xbe5fe83c	-0.21865934
186	0xbf66a9c8	-0.90102816
187	0xbe30db6b	-0.17271201
188	0x3f7b650d	0.98201066
189	0x3e90cd8f	0.2828183
190	0x3f128e75	0.5724862
191	0xbe4e4ccf	-0.20146488
192	0xbefdddad	-0.49583188
193	0xbfe5b747	-1.7946557
194	0xbfa4d00f	-1.2875994
195	0x3e7a2b07	0.24430476
196	0x3f177d32	0.5917541
197	0x3f29c25e	0.66312206
198	0x3ed6c600	0.41947937
199	0xbe9aa3a9	-0.30202988
200	0x3f97b47b	1.1851953
201	0xbf1b049b	-0.605539
202	0xbf01b586	-0.5066761
203	0xbd32d306	-0.04365828
204	0x3ddd3571	0.10801209
205	0x3e73b612	0.23799923
206	0x3e878dcf	0.2647538
207	0xbf59c10a	-0.8506018
208	0x3ebf63ba	0.37380773
209	0x3f227ab3	0.63468474
210	0x3f4e8c83	0.80683154
211	0xbe10c51b	-0.1413769
212	0xbf9b27ad	-1.2121483
213	0x3fb7c446	1.4356773
214	0xc07630c5	-3.8467267
215	0xbf272741	-0.6529427
216	0xbfaaa996	-1.3333004
217	0xbf876eb5	-1.058066
218	0x3eb3bea1	0.35106376
219	0x3dd65ba9	0.104667015
220	0xbf85634d	-1.0420929
221	0xc013990e	-2.3062167
222	0xbe75ee5c	-0.24016708
223	0xbfc8a6df	-1.5675925
224	0xbee0d5ff	-0.43913266
225	0xbfe98f41	-1.8246843
226	0xbfad6855	-1.3547465
227	0x3e6eb590	0.23311448
228	0x3ed2dacb	0.4118255
229	0x3f03c392	0.5147029
230	0x3f2042f1	0.62602144
231	0xbe8fddfe	-0.28099054
232	0x3f9fc19f	1.2480963
233	0xbf15a757	-0.58458465
234	0xbeb3c2b6	-0.3510949
235	0x3dc624a4	0.096749574
236	0x3d061789	0.03273729
237	0x3ed151d7	0.4088275
238	0x3ed038bd	0.40668288
239	0xbf5fcd5e	-0.8742274
240	0xbecae2e5	-0.39626232
241	0xbfd0dd7a	-1.6317589
242	0xbfa18ea5	-1.2621657
243	0x3dd51b10	0.104055524
244	0x3f17d12a	0.59303534
245	0x3f10e534	0.56599736
246	0x3efdebcb	0.49593958
247	0xbe6d463a	-0.2317132
248	0x3f9d9bf7	1.2313222
249	0xbecaa060	-0.3957548
250	0xbf0ce35c	-0.5503442
251	0x3df3f33f	0.1191163
252	0x3d776c5b	0.06040607
253	0x3ec7a507	0.38993093
254	0x3ecc5493	0.39908275
255	0xbf6c9446	-0.9241375

layer1.bias f4 [128]
0	0x3e86a1aa	0.26295215
1	0xbe674e5f	-0.2258849
2	0xbe5b85f5	-0.2143782
3	0xbf878a8e	-1.0589159
4	0xbe88117e	-0.26575845
5	0x3f1d71c8	0.6150174
6	0xbfa6dc7a	-1.3036034
7	0xbecf95cf	-0.40543982
8	0x3f354ab2	0.708171
9	0x3e7e66b8	0.24843872
10	0xbfbce252	-1.4756567
11	0xbf95aaf3	-1.1692795
12	0xbf848988	-1.0354471
13	0xbf6c45ef	-0.9229421
14	0xc05dd118	-3.465887
15	0xbf2ea701	-0.6822358
16	0x3ec7ab24	0.38997757
17	0x3f88fa0d	1.070131
18	0xbde3d2dc	-0.111242026
19	0xbf4b44c0	-0.7940178
20	0x3f5afb03	0.85539263
21	0xbbe94212	-0.007118472
22	0xbf3bb727	-0.73326343
23	0x3f7d5b3e	0.9896735
24	0xbf6373c2	-0.8884851
25	0x3ebfcf46	0.37462825
26	0xbf0fc1c3	-0.5615503
27	0xbec49b62	-0.38399798
28	0x3e969537	0.29410717
29	0x3f7a4e14	0.9777539
30	0xbf2b1f69	-0.66844803
31	0xc044a163	-3.0723503
32	0xbe84105e	-0.25793737
33	0xbfa130a0	-1.2592964
34	0xbf7a8bd9	-0.9786964
35	0xbf9d587d	-1.229263
36	0x3f24747f	0.6424026
37	0x3d626a04	0.055276886
38	0xbf961b65	-1.172711
39	0xbeccc7ef	-0.39996287
40	0xbf9c535a	-1.2212937
41	0xbeef7ec7	-0.4677641
42	0xbf4fac18	-0.8112197
43	0xbfe85e29	-1.8153735
44	0xbff6e5b7	-1.9288853
45	0xbffc2159	-1.9697677
46	0xbd6957ec	-0.056968614
47	0xbdfb3c67	-0.1226738
48	0xbf6328b3	-0.8873398
49	0xbdba5ffd	-0.091003396
50	0xc02f8c8a	-2.7429528
51	0xbef34174	-0.47510874
52	0x3e03d556	0.1287435
53	0xbf64788d	-0.89246446
54	0xbf42cdb1	-0.7609511
55	0xbc805e9d	-0.015670115
56	0xbfabe609	-1.3429576
57	0xc00d0492	-2.203404
58	0xbff516a2	-1.9147532
59	0xbf24b1c1	-0.6433373
60	0xbd1d8d6c	-0.03846495
61	0x3ea4a24c	0.32155073
62	0xbf0d9927	-0.55311817
63	0xbe120ff8	-0.14263904
64	0x3cd06225	0.025437424
65	0x3e66e097	0.22546612
66	0xbda1b8ed	-0.078966
67	0xbf28bf3f	-0.6591682
68	0xbf3a236f	-0.7271032
69	0xc05b1d20	-3.4236526
70	0x3e898d8f	0.26865813
71	0xbdc7a571	-0.09748352
72	0xbc23d9ce	-0.010000659
73	0xc01a22d7	-2.4083765
74	0xc00e301b	-2.2216861
75	0xbd872ae2	-0.06599976
76	0xc0052319	-2.0802672
77	0xbd53ada8	-0.051679283
78	0xbf966e22	-1.175236
79	0x3f6a9944	0.91640115
80	0xbe353d5a	-0.17699185
81	0x3e5a1486	0.21296892
82	0xc026bb32	-2.6051755
83	0xbe18e543	-0.14931206
84	0xbf8c4042	-1.095711
85	0xbfc7873e	-1.5588148
86	0xbfca210f	-1.5791339
87	0xc001d6ac	-2.0287275
88	0xbf2939a8	-0.661036
89	0x3e38de1d	0.1805348
90	0xbe8fa0e2	-0.2805243
91	0xc021833a	-2.5236344
92	0xbf0266d2	-0.5093814
93	0xc0650e61	-3.5790026
94	0xbc549520	-0.012975007
95	0xbdac08d2	-0.0840012
96	0xbec60b5f	-0.3868055
97	0xbdc6e1f3	-0.09711065
98	0x3f00e55a	0.5034996
99	0xbf84da7d	-1.0379177
100	0xbf244fce	-0.6418427
101	0x3fa8e0e7	1.3193635
102	0x3f20f7c7	0.6287808
103	0xc064dc7c	-3.5759573
104	0xbfe4b20c	-1.7866836
105	0xbe798457	-0.2436689
106	0x3ea6285e	0.32452673
107	0xbd055c20	-0.03255856
108	0x3ea9de3b	0.3317736
109	0x3decbde4	0.11559656
110	0xbe86ec94	-0.2635237
111	0xbf8c576e	-1.0964181
112	0x3fade6d6	1.358607
113	0xbf08594b	-0.5326125
114	0xbf15afe9	-0.5847154
115	0xbee9a546	-0.45633906
116	0xbf82705a	-1.0190537
117	0x3f007835	0.5018342
118	0xbeb4ed34	-0.35337222
119	0xbfbf36ef	-1.4938639
120	0x3e31c589	0.1736051
121	0xbefacdb4	-0.48985064
122	0x3e905008	0.2818606
123	0xbff2aa1e	-1.8958166
124	0xc06d176f	-3.7045553
125	0xbb883304	-0.004156472
126	0xbfc1377b	-1.5095056
127	0xbf8d1d1a	-1.1024506

layer2.weight f4 [64, 128]
0	0xbe530152	-0.20605972
1	0xbda4fdab	-0.08056196
2	0xbe6fea52	-0.2342923
3	0x3d4969d4	0.04917319
4	0xbdd5f43e	-0.10446976
5	0xbe2bfaa1	-0.16794826
6	0x3e05a113	0.13049726
7	0xbcdfcdc9	-0.027319806
8	0x3dfa7ed1	0.122312196
9	0xbdf5bfb3	-0.11999454
10	0xbd8fc421	-0.070198305
11	0xbd8df1f4	-0.069309145
12	0xbdab58aa	-0.08366521
13	0xbc88fe6b	-0.016722878
14	0xbd8128a8	-0.06306583
15	0xbd91dbea	-0.071220234
16	0xbe3735fe	-0.1789169
17	0xbe98b49d	-0.29825297
18	0xbea389e3	-0.31941137
19	0xbd3896cd	-0.04506569
20	0xbd772a03	-0.0603428
21	0xbcc2ba22	-0.023770396
22	0xbf2dae5e	-0.6784419
23	0xbdc6c060	-0.09704661
24	0xbd7e2d33	-0.062054824
25	0xbdd868fb	-0.105668984
26	0xbdbebd6c	-0.09313473
27	0xbdaef840	-0.08543444
28	0xbc278db8	-0.0102266595
29	0xbdad663d	-0.08466766
30	0xbec1620b	-0.37770113
31	0x3c151064	0.009098146
32	0xbedfe708	-0.4373095
33	0xbe88e0f4	-0.26734126
34	0x3e115743	0.14193444
35	0xbf162428	-0.5864892
36	0x3d2a6405	0.041599292
37	0xbd8b99da	-0.06816454
38	0x3e19e0c0	0.15027142
39	0xbdffb862	-0.1248634
40	0xbed04c36	-0.40683144
41	0xbe9326eb	-0.2874063
42	0x3ede9ea0	0.43480396
43	0xbef764e1	-0.48319152
44	0xbed85fea	-0.42260677
45	0xbe9c00b3	-0.30469283
46	0xba39314c	-0.0007064536
47	0x3d57a2a0	0.052645326
48	0xbf520174	-0.8203347
49	0xbe8b1ae8	-0.27168965
50	0xbefcc314	-0.49367583
51	0xbf0a3aef	-0.53996176
52	0xbf40093c	-0.7501409
53	0x3e692190	0.2276671
54	0xbf028b68	-0.5099397
55	0xbdcadd6c	-0.09905514
56	0xbeb5bfd7	-0.35497925
57	0xbdf22612	-0.118236676
58	0xbe406327	-0.18787824
59	0xbe7e5429	-0.24836792
60	0xbf5a26f7	-0.85215706
61	0xbe8273dd	-0.25479022
62	0x3e0af5d4	0.13570338
63	0xbcc92832	-0.0245553
64	0xbe23bc99	-0.15989913
65	0xbe1eb70d	-0.15499516
66	0xbcdeb6f0	-0.02718684
67	0xbcd67c3d	-0.026182288
68	0xbd92d913	-0.0717031
69	0x3dc9fc91	0.09862626
70	0xbe8d3764	-0.27581322
71	0xbda0af70	-0.07845962
72	0xbebc829d	-0.368184
73	0x3db7facb	0.08983382
74	0x3d8c19c7	0.06840854
75	0xbf0ac416	-0.54205453
76	0xbde12071	-0.10992516
77	0xbe244c04	-0.16044623
78	0xbe0c678f	-0.1371138
79	0xbdd87289	-0.10568721
80	0xbe1b6aec	-0.15177506
81	0xbe2bda9c	-0.16782612
82	0xbd2f3ab6	-0.0427806
83	0x3db25f7b	0.08709618
84	0xbe23260f	-0.15932487
85	0x3d2cf3c7	0.04222467
86	0xbf1d04ed	-0.6133564
87	0x3ead7fb7	0.338865
88	0xbe11aeb7	-0.14226805
89	0xbdb644d6	-0.08899848
90	0x3e0508e2	0.1299167
91	0xbda530b9	-0.08065934
92	0xbe87d136	-0.26526803
93	0x3f0974e0	0.5369396
94	0x3cdb4071	0.026764126
95	0xbcc5b16f	-0.024132458
96	0xbdf9af68	-0.12191659
97	0x3dbc9c13	0.09209456
98	0xbe3106b0	-0.17287707
99	0x3ccec6ad	0.02524122
100	0x3d4ac492	0.04950387
101	0xbea161c5	-0.31519905
102	0xbd6c933b	-0.057757597
103	0x3ce0596c	0.02738639
104	0xbf459217	-0.7717604
105	0x3c916dec	0.01775261
106	0x3de2197d	0.11040018
107	0xbdb72ec5	-0.089444675
108	0xbe156978	-0.14591014
109	0xbee48386	-0.44631594
110	0xbdb3ec6f	-0.087853305
111	0xbf346cb1	-0.7047835
112	0xbd7286e2	-0.059210666
113	0xbe919f67	-0.28441927
114	0x3ebc326a	0.36757213
115	0xbe690bc9	-0.22758402
116	0xbed8342d	-0.42227307
117	0xbdfc6341	-0.12323619
118	0x3e06913f	0.13141344
119	0xbd36d772	-0.04463906
120	0x3e5d4e4c	0.21611899
121	0xbe6f30f1	-0.23358513
122	0xbf6c5f91	-0.9233332
123	0xbf099ba6	-0.53753126
124	0x3d85e030	0.06536901
125	0x3c5dba51	0.013533191
126	0x3e76cc76	0.24101433
127	0x3dc22e78	0.094815195
128	0xbf882acc	-1.063806
129	0xbfb4f7eb	-1.4138159
130	0x3f3aa32c	0.7290523
131	0xbe8f9c52	-0.2804895
132	0x4013685b	2.3032444
133	0xbf4c3db2	-0.7978164
134	0xc02e3653	-2.7220657
135	0xc01e0726	-2.4691863
136	0xbf83b48d	-1.0289475
137	0xbec60f86	-0.38683718
138	0x4005d15f	2.090904
139	0x3f2586db	0.646589
140	0x3f544fe4	0.82934403
141	0x3f70add9	0.9401527
142	0xbd4f2d25	-0.050580163
143	0x3e38f483	0.18062024
144	0xbffe8c7f	-1.9886626
145	0x3ec5bbfc	0.38619983
146	0xbf5a6f43	-0.8532602
147	0xbf90e193	-1.131884
148	0x3ecd598a	0.40107375
149	0xbf2b850a	-0.66999876
150	0xbedf6414	-0.4363104
151	0xbf18a8c4	-0.59632516
152	0xbf25b926	-0.6473564
153	0x400d515d	2.208091
154	0xbf013785	-0.5047534
155	0x3fbe4800	1.4865723
156	0x3fca2331	1.579199
157	0xbe9a5881	-0.30145648
158	0x3fcb13a5	1.586537
159	0x400c1f32	2.189404
160	0x3d8dc17f	0.06921672
161	0xbf3bb917	-0.733293
162	0xbe023943	-0.12717156
163	0x3fa8d01b	1.3188509
164	0xbf0f8e52	-0.5607654
165	0x3e0e264f	0.13881801
166	0xbf0d4069	-0.5517641
167	0x4001ce21	2.028206
168	0xbed12a69	-0.4085267
169	0xbf04bb7f	-0.51848596
170	0x4033fe97	2.812414
171	0xbfea7b15	-1.8318812
172	0xc0248746	-2.5707564
173	0xbf019c9e	-0.50629604
174	0xbd8081c9	-0.062747546
175	0x3cb09234	0.02155409
176	0xbefb190b	-0.49042544
177	0x3eda7f2d	0.42675152
178	0x3ff713a9	1.9302875
179	0xbf5a2a57	-0.85220855
180	0xbf6c8568	-0.9239106
181	0xbd488089	-0.048950706
182	0x3f569808	0.8382573
183	0x3fb36460	1.4015007
184	0x3f88f4fc	1.0699763
185	0x4033c5f8	2.808958
186	0x3fd654b0	1.6744595
187	0x4056f474	3.3586702
188	0xbfdb3a68	-1.7127199
189	0xbe67e885	-0.22647293
190	0xbf710267	-0.9414429
191	0xbd9831c1	-0.07431365
192	0xbd22160e	-0.039571814
193	0xbfcecc33	-1.6156067
194	0xbfcb6d4f	-1.5892733
195	0xbf4ef2e7	-0.8083939
196	0xbf424222	-0.7588216
197	0x3d02f689	0.031973395
198	0xbeb7bc7f	-0.35886
199	0x3c191f2d	0.009345812
200	0x3f397a4c	0.72452235
201	0xc00f05c3	-2.2347267
202	0x3fc86d7a	1.565841
203	0xbeb5862f	-0.35453936
204	0x40487f80	3.132782
205	0x3ce54a04	0.027989395
206	0xbed9b839	-0.42523363
207	0x3eb261af	0.34840152
208	0xbd28ebc8	-0.041240484
209	0xbfea171d	-1.8288304
210	0x400f1432	2.2356076
211	0xbd2e0fda	-0.042495586
212	0xbf8e257b	-1.1105188
213	0xbe5ba919	-0.21451224
214	0xbcfb6fee	-0.03069302
215	0x3d01d7ce	0.031699948
216	0xbe26c69a	-0.16286698
217	0xbf9f3e45	-1.2440878
218	0x4005d93d	2.0913842
219	0x4020bbff	2.5114744
220	0xbe918d7d	-0.2842826
221	0xbf853549	-1.0406886
222	0x3d7ef782	0.06224776
223	0xb889d201	-6.571785e-05
224	0xbf5821ac	-0.8442638
225	0x3c1627b0	0.009164736
226	0x3f7865df	0.9703044
227	0x3f8d8f39	1.1059333
228	0xbe0b7aac	-0.13621014
229	0x3c3a5f30	0.0113752335
230	0xbfa6bd82	-1.3026583
231	0x404961df	3.1465986
232	0xbfe86f04	-1.8158879
233	0x3d19bed2	0.037535496
234	0xc0b025cf	-5.5046153
235	0xbebbdc95	-0.36691728
236	0xc0a12dd4	-5.0368443
237	0x3ecedb3c	0.40401638
238	0xbddefa9b	-0.10887643
239	0x3fd85052	1.6899512
240	0xbe4ec4c3	-0.20192246
241	0x3c1b0cef	0.009463533
242	0x3e84a4ca	0.25906974
243	0x3f1cb9ab	0.61220807
244	0x400b9168	2.18075
245	0x3e8d66cd	0.27617493
246	0xbd836fef	-0.06417834
247	0xbd674b9d	-0.056468595
248	0xbe8d1b01	-0.27559665
249	0xc03701c3	-2.8594825
250	0x3f9a1910	1.2038898
251	0x401c3f03	2.441346
252	0x3f71c1a0	0.94436073
253	0x3d40727e	0.04698419
254	0xbef5cc24	-0.4800731
255	0xc04843a9	-3.1291296

layer2.bias f4 [64]
0	0xbca6c103	-0.020355707
1	0xbf2da3a6	-0.6782783
2	0xbe06456e	-0.13112423
3	0xbc456d46	-0.012049979
4	0xbfb48579	-1.4103233
5	0xbfa8c2fc	-1.3184505
6	0xbe1eb626	-0.15499172
7	0xbf9d1de7	-1.227475
8	0xc0005471	-2.005154
9	0xbfd05112	-1.6274741
10	0x3fb0cd10	1.381258
11	0xbfa98269	-1.3242923
12	0xbe87efb1	-0.26550058
13	0xbdbeefa2	-0.0932305
14	0xc015d026	-2.3408294
15	0xbf45dee4	-0.7729323
16	0x3f2f3ceb	0.6845233
17	0xc024a212	-2.572392
18	0xbfc3258b	-1.5245832
19	0xbe54160f	-0.2071154
20	0xbcf354a0	-0.029703438
21	0xbea62c07	-0.32455465
22	0xbe157d26	-0.14598522
23	0xbefffc47	-0.4999716
24	0x3eeea8d9	0.46613196
25	0xbdd3156a	-0.10306819
26	0xbd065fe5	-0.032806296
27	0xbf79163f	-0.9729957
28	0xbd4574a1	-0.04820693
29	0xc0200e05	-2.5008557
30	0x3c575b49	0.013144323
31	0xbeccd8c6	-0.40009135
32	0xbe3ad20d	-0.1824419
33	0xbfd62e07	-1.6732796
34	0xbfe2b55c	-1.7711596
35	0xbe45f425	-0.19331415
36	0xbfc28b02	-1.5198672
37	0x3f963920	1.1736183
38	0x3fca7a98	1.5818663
39	0xc0ae3888	-5.444401
40	0xbdedf6dd	-0.11619351
41	0xbe55e323	-0.20887427
42	0xbec8f07d	-0.39245978
43	0xbe513166	-0.20429
44	0xc00ee604	-2.232789
45	0xbe96a623	-0.29423627
46	0xbff2e68e	-1.897661
47	0x3df6ba48	0.12047249
48	0xbf9f1bdd	-1.2430378
49	0x3f1b3c78	0.60639143
50	0xbe90e817	-0.2830207
51	0xbf9b5978	-1.2136679
52	0xbff8614d	-1.9404694
53	0xbfaf7f1a	-1.3710663
54	0xbe288184	-0.16455656
55	0xbef408d3	-0.47662982
56	0xbe2b278c	-0.16714305
57	0xc030df72	-2.763638
58	0x3f5d2b02	0.8639375
59	0x3ff33ba2	1.9002573
60	0xc01c80f0	-2.4453697
61	0xbea919cc	-0.33027494
62	0xc01149e3	-2.2701347
63	0x3fa57b61	1.2928277

layer3.weight f4 [1, 64]
0	0x3c1f33b6	0.009716919
1	0x3e362a0c	0.17789477
2	0xbcc0d442	-0.023538712
3	0xbd001883	-0.031273376
4	0x3e4bf696	0.19918284
5	0x3f55e1d8	0.83547735
6	0x3cc25f12	0.023726974
7	0xbe6b3d5f	-0.2297263
8	0xbef50385	-0.47854248
9	0xbebdf3c9	-0.37100056
10	0xbd85842b	-0.0651935
11	0x3e44f44f	0.19233821
12	0xc0611472	-3.516873
13	0x3c714225	0.014725243
14	0x3ef6779c	0.4813813
15	0xbe3a273b	-0.18179028
16	0x3d824bfc	0.06362149
17	0x3f257f9f	0.6464786
18	0x3ec3c463	0.3823577
19	0x3cb203ec	0.021730386
20	0xbd132a85	-0.03592922
21	0xc0868b77	-4.2045245
22	0x3c2e9368	0.010655262
23	0xbf0572e1	-0.52128416
24	0xbdc9ef6e	-0.09860121
25	0x3d734534	0.05939217
26	0x3c9ca7aa	0.019122917
27	0x3e307984	0.17233855
28	0xbd92faa8	-0.07176715
29	0x3e92efda	0.28698617
30	0x3e94b8d3	0.2904726
31	0xbe8d3798	-0.27581477
32	0xbbafa893	-0.005360672
33	0x3ed3dde9	0.41380242
34	0x3eea76be	0.45793718
35	0xb9f137ee	-0.00046008773
36	0x3ea3c509	0.31986263
37	0x3d8c18f6	0.068406984
38	0xbde254eb	-0.11051353
39	0x3ed14089	0.4086955
40	0xbdfac927	-0.12245398
41	0x3c9658c8	0.018352881
42	0xbc1092c2	-0.008824052
43	0xbcc77847	-0.024349345
44	0xbe7dbe21	-0.2477956
45	0x3e173af7	0.14768587
46	0xbeb8a7ac	-0.36065423
47	0x3e178cc7	0.14799796
48	0xbf5a56fd	-0.85288984
49	0x3da44a84	0.08022025
50	0xbcf65085	-0.030067692
51	0xbe89ec37	-0.2693803
52	0x3ef50a8a	0.47859603
53	0x3e88aeef	0.26695964
54	0xbef63935	-0.4809052
55	0xbe5ef65e	-0.21773669
56	0x3c19477b	0.009355421
57	0x3f3d0ce4	0.73847795
58	0xbdabdb26	-0.083914086
59	0xbda5bec0	-0.08093023
60	0xbf5120a2	-0.8169042
61	0xbf17e606	-0.5933536
62	0xbe75324e	-0.23944971
63	0x3dbc55cd	0.09196053
